models/mlp_model.pt (torch, 17641 bytes, 6 tensors)

net.0.weight f4 [64, 20]
-0.2346306 0.2395249 0.17297614 -0.16510993 -0.050666444 0.17376335 0.22682631 0.24122815
-0.19420335 -0.09916994 0.25565973 0.12425773 0.08329834 -0.15521146 0.10322439 -0.15220657
-0.15711258 -0.25511244 -0.23473652 0.2597391 0.039012898 -0.16361266 0.012610664 -0.07490575
-0.21630651 -0.20678192 0.1351125 -0.15778184 -0.20950389 -0.20000237 0.08030904 -0.056637175
-0.048390232 0.18977845 -0.13882512 -0.13737997 0.17099409 0.03213546 0.12343767 0.22177732
0.0449107 0.26421 0.06181561 -0.17232446 -0.25041404 0.15739584 -0.14429729 0.015682839
0.0561794 0.077382565 0.06470125 -0.031151945 0.23821194 -0.090736605 0.26494402 0.097807445
-0.2751556 -0.09373762 -0.21173267 -0.2526201 -0.25837195 -0.133677 -0.07625118 -0.11006941
0.24828115 0.081419416 0.079300284 -0.17849004 0.24203171 0.22415529 0.109251186 -0.062394533
-0.1691966 0.21629575 -0.09953525 -0.2382506 0.23560639 0.1595031 0.051763035 0.17070931
-0.23456463 0.27390712 0.21560033 0.22124006 0.19046123 0.012509529 0.2490713 -0.14963247
-0.15896192 -0.16227235 -0.2411231 -0.13492212 -0.25071034 -0.2062026 -0.07189904 -0.24349622
-0.07048248 -0.10360124 0.22214535 0.14372155 0.23633018 -0.22136584 0.16739911 0.082107544
-0.14611773 -0.16342361 0.19990009 -0.18812823 -0.21026273 -0.22420412 0.07423744 0.2761034
-0.12055629 0.27183747 0.24708728 -0.19219127 0.123421244 0.10869267 0.05983387 0.21022576
-0.14444873 0.19356528 0.08994908 -0.07363075 0.10145423 0.0101566855 0.02581542 0.01841305
-0.0049174866 0.021533746 0.12476417 -0.13640614 -0.17446087 -0.036625367 0.17871828 -0.042253137
-0.082736745 -0.036672942 0.12980537 -0.08866227 -0.09611448 -0.13152163 -0.21442226 0.15441331
-0.24340953 -0.13607611 0.23895879 -0.123435214 0.16593467 -0.23293763 -0.16535494 -0.23380154
-0.24925673 0.1788129 0.17161207 0.23428726 0.2150574 -0.25408334 -0.23609807 -0.2172046
-0.20912334 -0.075339645 0.0708671 0.20604467 -0.21105686 -0.25139615 0.12658569 -0.07136429
-0.20092018 -0.10709196 0.07071866 -0.27090514 0.13433777 -0.14697398 -0.22800317 -0.23877473
0.01821412 0.28170016 -0.27576452 -0.22220363 0.05830158 0.054376498 -0.022504188 0.14982237
0.04938313 -0.0015593376 -0.108924426 -0.047698297 -0.016497547 0.01822241 -0.16594502 -0.12285632
0.010624305 -0.024315948 -0.0028527728 -0.10801448 0.1291299 0.027725296 -0.01894743 -0.048070524
0.11263926 -0.028289082 0.14408465 -0.06908868 -0.07636461 -0.07945729 0.21736549 -0.21275224
-0.22487539 -0.12683924 -0.059199102 0.21274775 0.081392966 -0.03825149 -0.067283705 0.13215357
-0.109711856 0.20091935 0.24919471 0.23253818 0.15673037 -0.19225767 0.16345851 -0.23797643
-0.2637538 -0.25378013 -0.08834645 -0.100196816 -0.18830764 -0.22946444 0.21007293 0.103951365
-0.15115495 -0.20598146 0.1351971 0.0563908 -0.17080832 0.120056234 -0.0784644 -0.12740907
0.16409773 -0.062172383 0.09813678 -0.24386275 -0.077017784 0.036546152 -0.18670881 -0.11982076
-0.21674457 -0.06122161 0.09870582 -0.22423601 0.086363696 -0.22847353 0.13351902 -0.14884935
00000000: 0143 70be 0446 753e a820 313e 9412 29be
00000010: 9e87 4fbd 05ef 313e 2845 683e 8304 773e
00000020: 3edd 46be 9c19 cbbd d5e5 823e d67a fe3d
00000030: 5298 aa3d c1ef 1ebe 4f67 d33d 0adc 1bbe
00000040: 1fe2 20be 199e 82be c55e 70be 86fc 843e
00000050: fdcb 1f3d 148a 27be f59c 4e3c 3068 99bd
00000060: 747f 5dbe a4be 53be ee5a 0a3e 9091 21be
00000070: 3088 56be 6ccd 4cbe 1179 a43d 62fc 67bd
00000080: d634 46bd 4855 423e 2c28 0ebe 56ad 0cbe
00000090: 1319 2f3e 79a0 033d e4cc fc3d 9819 633e
000000a0: 48f4 373d 8846 873e 5d32 7d3d d375 30be
000000b0: 4536 80be 602c 213e abc2 13be 4c79 803c
000000c0: 5f1c 663d c07a 9e3d 1782 843d 5d32 ffbc
000000d0: d5ed 733e 1dd4 b9bd bea6 873e 454f c83d
000000e0: 32e1 8cbe 82f9 bfbd 73d0 58be 6c57 81be
000000f0: 5449 84be a0e2 08be 9429 9cbd 126c e1bd
00000100: 6a3d 7e3e 39bf a63d 3068 a23d 18c6 36be
00000110: 29d7 773e f788 653e 16bf df3d 6991 7fbd
00000120: e041 2dbe a27c 5d3e 23d9 cbbd f7f7 73be
00000130: cd42 713e c854 233e 7a05 543d 6cce 2e3e
00000140: b631 70be 8e3d 8c3e 55c6 5c3e c18c 623e
00000150: 4508 433e c4f4 4c3c 8c0c 7f3e 4139 19be
00000160: eac6 22be b92a 26be f9e8 76be 0629 0abe
00000170: 1b5d 80be c626 53be ce3f 93bd 1357 79be
00000180: 1e59 90bd e32c d4bd 127a 633e be2b 133e
00000190: 8a00 723e baad 62be ac6a 2b3e 0028 a83d
000001a0: e39f 15be 8558 27be 9cb2 4c3e b0a4 40be
000001b0: 1d4f 57be c495 65be cd09 983d 6d5d 8d3e
000001c0: 37e6 f6bd 482e 8b3e 7304 7d3e cacd 44be
000001d0: 47c4 fc3d 439a de3d 5c14 753d 6c45 573e
000001e0: 5eea 13be fa35 463e 3937 b83d b8cb 96bd
000001f0: 3cc7 cf3d 3a68 263c dc7a d33c f7d6 963c
00000200: de22 a1bb 8a67 b03c 5b84 ff3d 0dae 0bbe
00000210: dfa5 32be 7b04 16bd ed01 373e a011 2dbd
00000220: e271 a9bd 5e36 16bd b3eb 043e 9094 b5bd
00000230: abd7 c4bd 9bad 06be 8291 5bbe 861e 1e3e
00000240: 5940 79be 8957 0bbe 9db1 743e 9acb fcbd
00000250: c7ea 293e 3487 6ebe ce52 29be ac69 6fbe
00000260: 283d 7fbe bb1a 373e 13bb 2f3e 00e9 6f3e
00000270: 0238 5c3e 3617 82be b1c3 71be e26a 5ebe
00000280: 6e24 56be ac4b 9abd c522 913d 60fd 523e
00000290: 4a1f 58be ffb6 80be ae9f 013e 7127 92bd
000002a0: 05be 4dbe 0853 dbbd f2d4 903d 14b4 8abe
000002b0: d78f 093e 5980 16be aa79 69be 5d81 74be
000002c0: c735 953c 013b 903e 0231 8dbe 5989 63be
000002d0: a3cd 6e3d e4b9 5e3d b45a b8bc 096b 193e
000002e0: f745 4a3d b062 ccba c513 dfbd 4a5f 43bd
000002f0: dd25 87bc 2a47 953c 7eed 29be 189c fbbd
00000300: 9111 2e3c 3d32 c7bc 96f5 3abb b236 ddbd
00000310: a13a 043e 2920 e33c a437 9bbc 99e5 44bd
00000320: 6aaf e63d 81be e7bc ed8a 133e 5e7e 8dbd
00000330: 0c65 9cbd 81ba a2bd 0f95 5e3e b9db 59be
00000340: bc45 66be 25e2 01be c27a 72bd 8cda 593e
00000350: 5bb1 a63d 98ad 1cbd 0acc 89bd 4453 073e
00000360: 9cb0 e0bd cdbd 4d3e e62c 7f3e 7d1e 6e3e
00000370: ed7d 203e 32df 44be ab61 273e 18b0 73be
00000380: bd0a 87be 78ef 81be fcee b4bd fd33 cdbd
00000390: b8d3 40be baf8 6abe 5c1d 573e 74e4 d43d
000003a0: 5dc8 1abe ceec 52be 1c71 0a3e 0afa 663d
000003b0: 60e8 2ebe 0be0 f53d f1b1 a0bd 8677 02be
000003c0: 3c09 283e 78a8 7ebd f0fb c83d 28b7 79be
000003d0: 80bb 9dbd 6bb1 153d 9830 3fbe 9664 f5bd
000003e0: 4af2 5dbe 83c3 7abd 4726 ca3d 209e 65be
000003f0: 73df b03d f7f4 69be 36b9 083e f76b 18be

net.0.bias f4 [64]
0.24536416 0.01712416 0.19677071 -0.056789957 -0.09619109 -0.12855217 0.0039212015 -0.09361227
0.03460895 -0.044338897 -0.09945403 -0.063251875 -0.1606153 -0.0518693 -0.123529024 0.16151337
0.23798543 -0.082850784 -0.16669424 0.24706021 0.24048716 -0.19790787 -0.14257121 0.19205013
-0.100534484 -0.1128716 -0.15707955 0.08007863 0.18690144 0.27452487 0.18248358 0.03470692
0.27937317 0.18180238 0.16485937 0.06900123 0.08499046 -0.17740849 -0.19764946 0.029152734
0.17163995 -0.13013975 -0.14410377 0.0142951375 -0.14483213 -0.10939442 0.15699935 -0.11364952
0.081234105 -0.075474136 0.10449527 0.05836308 0.01293622 -0.050530486 0.19298622 0.22958612
-0.0016499521 0.26778173 0.03013708 -0.13405871 -0.11233273 0.06503981 0.09884618 -0.112273924
00000000: be40 7b3e f747 8c3c 437e 493e 969c 68bd
00000010: d6ff c4bd 2ea3 03be 6c7d 803b cab7 bfbd
00000020: 1dc2 0d3d b49c 35bd 8eae cbbd 338a 81bd
00000030: 5678 24be e774 54bd c9fc fcbd c363 253e
00000040: 74b2 733e acad a9bd e5b1 2abe 5afd 7c3e
00000050: 4442 763e 5ca8 4abe 30fe 11be caa8 443e
00000060: 06e5 cdbd 3a29 e7bd 76d9 20be 4400 a43d
00000070: 1763 3f3e 868e 8c3e fadc 3a3e d828 0e3d
00000080: 000a 8f3e 672a 3a3e e5d0 283e 8450 8d3d
00000090: 7a0f ae3d 92aa 35be 9f64 4abe b7d1 ee3c
000000a0: 62c2 2f3e 5b43 05be f08f 13be 2736 6a3c
000000b0: e04e 14be 2f0a e0bd 70c4 203e 14c1 e8bd
000000c0: 115e a63d 2f92 9abd 9e01 d63d 200e 6f3d
000000d0: 70f2 533c 0ef9 4ebd 2e9e 453e a018 6b3e
000000e0: 3543 d8ba b01a 893e 0ae2 f63c b046 09be
000000f0: b40e e6bd 9833 853d de6f ca3d dfef e5bd

net.2.weight f4 [32, 64]
-0.0006536082 -0.102832295 0.01700054 -0.14266849 0.08347516 0.09078618 -0.05844495 -0.09220232
-0.0074228975 -0.077187344 -0.012436948 0.036334157 -0.12441204 -0.045586333 0.07416349 0.017171677
0.062784426 -0.05996406 0.026082456 -0.035829145 -0.036135938 0.016212696 -0.08426959 -0.09323584
0.09058579 -0.11611104 -0.057177484 -0.02907636 -0.010476563 0.0667404 -0.07103205 -0.13118596
-0.14892519 0.06211857 -0.062018465 0.041984543 -0.0075486903 0.078954525 0.022251027 -0.099522345
-0.12756035 -0.09737769 0.031869523 -0.09377635 -0.038640056 -0.033732377 0.031039795 -0.07128842
0.076802984 0.023269251 -0.05727486 -0.100577235 0.07434775 -0.09494385 -0.13543788 -0.09548439
-0.0921229 0.04250128 0.028449629 0.06945856 -0.083887115 0.09601288 0.062044986 -0.055953205
0.012320566 0.09064922 0.04686199 0.06787285 0.0019809788 -0.076756015 -0.14527045 -0.11189354
0.01956084 -0.13387148 0.032208256 -0.12241995 0.0124436235 0.0011635384 -0.14856733 0.08182541
0.0735092 0.021859325 -0.007707077 0.057869285 0.009786061 0.046850555 0.065032646 0.028229047
-0.10463001 -0.09455059 -0.1425515 0.07284763 0.05300978 -0.01401857 -0.045936406 -0.06974189
0.082718916 -0.059060935 -0.046880122 -0.13376452 0.02305925 0.042581834 -0.04659032 0.056414224
-0.04065589 0.07316173 -0.055732526 -0.021347472 -0.097548485 0.02591674 0.071363814 0.0377124
0.0417978 -0.04720173 -0.015587942 -0.047687285 -0.14112721 0.056343332 -0.035855636 0.061912473
-0.1172403 -0.103700496 0.080712475 -0.09104027 -0.08603734 0.053194083 -0.0972418 -0.02527654
-0.12668185 0.038920265 0.0373258 -0.11032324 -0.09160499 -0.07111074 -0.00024970778 0.0797771
-0.0044847974 -0.15121482 -0.043778963 -0.13989405 0.067925915 -0.101608165 -0.043564375 -0.025536181
-0.058530923 0.043628458 0.06019442 -0.07565653 0.090771355 -0.048571583 -0.097028285 -0.14252478
0.07200488 -0.0303367 0.0071898727 0.03427786 -0.1153485 0.085482165 -0.021155033 0.090356454
-0.023817644 0.077397935 0.021290326 0.029968893 -0.07846855 -0.1303866 0.0019377625 -0.08104919
-0.10273041 0.04907775 -0.056779765 -0.031036695 0.055384476 -0.14423229 -0.07827859 -0.024078714
0.038096342 -0.042428948 -0.024288157 0.08505011 0.08085677 0.027815145 -0.010215108 -0.061384436
-0.13318299 -0.04663589 0.03122896 0.036334045 0.076208994 0.07159461 -0.04205646 -0.118469656
0.110932924 0.1204213 0.13807179 -0.037602954 0.12789612 0.018737588 0.03134305 0.0795399
0.13035473 -0.04340476 -0.015205591 0.0019112475 0.05176393 0.0262195 0.0056835692 0.1329103
0.16758943 0.03221991 0.11676684 0.12025509 0.13297336 -0.03429774 0.08629936 0.09383753
-0.008948745 0.1768526 0.1774798 0.12639117 -0.06383182 -0.039633013 -0.010572359 0.0001489988
0.0941968 -0.01807884 0.028730087 0.072616346 0.13914514 0.024788622 -0.006693554 0.13668564
-0.048761286 0.055116244 -0.033101294 0.036223307 0.10925128 0.0306212 -0.011572765 0.17199056
0.027121713 -0.050481144 0.06942734 0.17328742 0.06488221 0.04295378 0.06324154 0.17377736
0.10544022 0.06985938 0.0019663053 0.122619376 0.082764626 -0.06057077 -0.0472613 0.07226807
00000000: e756 2bba bd99 d2bd b744 8b3c b017 12be
00000010: 06f5 aa3d 1bee b93d f963 6fbd 92d4 bcbd
00000020: c73b f3bb 6614 9ebd 57c4 4bbc 20d3 143d
00000030: bdcb febd bcb8 3abd 07e3 973d 9eab 8c3c
00000040: 1f95 803d e09c 75bd e0aa d53c 95c1 12bd
00000050: 4703 14bd 7dd0 843c 8995 acbd 6ff2 bebd
00000060: 0b85 b93d a0cb edbd f032 6abd 8c31 eebc
00000070: e4a5 2bbc 31af 883d 4079 91bd 9d55 06be
00000080: d87f 18be 0b70 7e3d 1307 7ebd fcf7 2b3d
00000090: 015b f7bb e9b2 a13d c947 b63c 5fd2 cbbd
000000a0: 2e9f 02be f46d c7bd 9e89 023d d10d c0bd
000000b0: 0945 1ebd f62a 0abd 2b47 fe3c aaff 91bd
000000c0: e24a 9d3d 289f be3c 0b99 6abd 70fb cdbd
000000d0: a243 983d ec71 c2bd 3ab0 0abe 528d c3bd
000000e0: eeaa bcbd d215 2e3d 320f e93c 4a40 8e3d
000000f0: 02cd abbd 67a2 c43d e222 7e3d 302f 65bd
00000100: 33dc 493c 4ca6 b93d 5cf2 3f3d ec00 8b3d
00000110: 4fd3 013b 4232 9dbd c7c1 14be 7128 e5bd
00000120: 0e3e a03c 9b15 09be ceec 033d 50b7 fabd
00000130: 57e0 4b3c df81 983a 0922 18be 1594 a73d
00000140: fe8b 963d 5412 b33c a68b fcbb 5808 6d3d
00000150: b755 203c 5ee6 3f3d d62f 853d 9a40 e73c
00000160: 4248 d6bd bda3 c1bd 05f9 11be 2331 953d
00000170: c820 593d 25ae 65bc d027 3cbd d6d4 8ebd
00000180: 8968 a93d e1e9 71bd 5f05 40bd 91f9 08be
00000190: c1e6 bc3c 4a6a 2e3d 7ed5 3ebd 9a12 673d
000001a0: ca86 26bd d1d5 953d ca47 64bd e5e0 aebc
000001b0: 80c7 c7bd 584f d43c 3127 923d 5178 1a3d
000001c0: 2c34 2b3d 9a56 41bd 9164 7fbc be53 43bd
000001d0: a783 10be 44c8 663d 5cdd 12bd ef97 7d3d
000001e0: af1b f0bd ed60 d4bd 954c a53d 5273 babd
000001f0: 5834 b0bd 0ae2 593d b526 c7bd bf10 cfbc
00000200: e3b8 01be db6a 1f3d f0e2 183d 27f1 e1bd
00000210: 669b bbbd 82a2 91bd 36eb 82b9 2d62 a33d
00000220: 35f5 92bb 0fd8 1abe 9251 33bd 6340 0fbe
00000230: be1c 8b3d f117 d0bd 8f70 32bd 4131 d1bc
00000240: 1fbe 6fbd c1b3 323d 6d8e 763d d0f1 9abd
00000250: 55e6 b93d fff2 46bd c4b6 c6bd 04f2 11be
00000260: 4b77 933d ac84 f8bc 0699 eb3b f166 0c3d
00000270: d63b ecbd 4611 af3d 524d adbc ce0c b93d
00000280: 381d c3bc cf82 9e3d 0d69 ae3c 5381 f53c
00000290: 1fb4 a0bd 1184 05be 85fc fd3a 1efd a5bd
000002a0: 5264 d2bd c005 493d e691 68bd ab40 febc
000002b0: d5da 623d a1b1 13be 8750 a0bd b940 c5bc
000002c0: e90a 1c3d fac9 2dbd f5f7 c6bc c12e ae3d
000002d0: 3c98 a53d 96dc e33c 455d 27bc 3f6e 7bbd
000002e0: 1f61 08be 4605 3fbd e0d3 ff3c 02d3 143d
000002f0: 7613 9c3d 32a0 923d 6543 2cbd 38a0 f2bd
00000300: cd30 e33d 719f f63d b162 0d3e 8e05 1abd
00000310: 33f7 023e 927f 993c 9261 003d d1e5 a23d
00000320: b67b 053e 31c9 31bd df20 79bc d382 fa3a
00000330: 6a06 543d 47ca d63c 3c3d ba3b a319 083e
00000340: 909c 2b3e 06f9 033d 7423 ef3d 4d48 f63d
00000350: 2b2a 083e c97b 0cbd b8bd b03d e42d c03d
00000360: c29d 12bc d918 353e 44bd 353e b06c 013e
00000370: 42ba 82bd 3a56 22bd b037 2dbc 903c 1c39
00000380: 40ea c03d 131a 94bc 5c5b eb3c e1b7 943d
00000390: 107c 0e3e 8211 cb3c 9a55 dbbb 52f7 0b3e
000003a0: eab9 47bd 92c1 613d 3995 07bd e45e 143d
000003b0: 23bf df3d 50d9 fa3c b29b 3dbc 4b1e 303e
000003c0: 5b2e de3c 51c5 4ebd ec2f 8e3d 4272 313e
000003d0: f7e0 843d 4ef0 2f3d c884 813d b1f2 313e
000003e0: 0bf1 d73d 6f12 8f3d 21dd 003b de1f fb3d
000003f0: 8080 a93d 0e19 78bd 1195 41bd 4801 943d

net.2.bias f4 [32]
0.041956015 -0.057073608 0.08103437 0.056204133 0.15975533 0.119169176 0.09073218 0.07134384
-0.06502593 -0.025852768 0.08754434 0.06392547 -0.09804867 -0.107320786 0.037738305 -0.13516837
-0.047780074 -0.04351266 0.05432758 0.03645288 -0.0179371 -0.05727633 -0.002766651 0.13774775
0.12971765 -0.03635401 0.15696429 0.023748053 0.07865426 0.12377122 0.087168925 -0.0073868916
00000000: 12da 2b3d 04c6 69bd 59f5 a53d 4e36 663d
00000010: e796 233e f80e f43d cbd1 b93d b81c 923d
00000020: 512c 85bd 2fc9 d3bc 724a b33d 5beb 823d
00000030: becd c8bd 00cb dbbd 7b93 1a3d 9469 0abe
00000040: 0ab5 43bd 553a 32bd 9986 5e3d 9d4f 153d
00000050: d3f0 92bc 969a 6abd b450 35bb bf0d 0d3e
00000060: b4d4 043e f1e7 14bd 3fbb 203e 478b c23c
00000070: 7c15 a13d c47b fd3d 9f85 b23d bd0d f2bb

mean_head.weight f4 [1, 32]
-0.020775229 0.18287332 0.13585064 0.09912885 0.10067512 -0.072344124 -0.11287757 -0.052706446
-0.01916601 -0.06282604 -0.019826638 0.067360625 -0.05037555 0.04364853 -0.118612714 0.019686993
-0.16626324 0.15377441 0.11633231 -0.13289706 -0.03791857 -0.06215791 0.08401668 0.09781075
-0.12456039 -0.08634284 -0.092161335 0.005854827 -0.1420651 -0.039937597 0.2043596 0.0070348578
00000000: d030 aabc 2543 3b3e 6e1c 0b3e 1104 cb3d
00000010: c22e ce3d 2829 94bd 5b2c e7bd b7e2 57bd
00000020: 0902 9dbc f0aa 80bd 796b a2bc 5ef4 893d
00000030: 9856 4ebd cdc8 323d 39eb f2bd 9e46 a13c
00000040: e940 2abe 0a77 1d3e a23f ee3d 2b16 08be
00000050: 8150 1bbd 4b99 7ebd f010 ac3d 0151 c83d
00000060: 8519 ffbd 84d4 b0bd 15bf bcbd d9d9 bf3b
00000070: 8379 11be 9b95 23bd a543 513e aa84 e63b

log_var_head.weight f4 [1, 32]
0.029187126 0.14723091 0.014876064 -0.1409687 -0.07205846 -0.2187983 -0.16302496 0.14609876
-0.22022812 0.08732772 0.05731649 -0.17653386 0.015964197 0.039793357 -0.10422436 0.039667998
0.10239054 0.10722975 -0.16434246 -0.199846 -0.20259987 0.07100306 0.035099987 -0.2305114
-0.14909041 -0.1776081 -0.15739541 -0.19623469 0.041703925 -0.23586814 -0.1021304 0.1212106
00000000: d719 ef3c b3c3 163e bcba 733c 195a 10be
00000010: 6393 93bd a90c 60be 04f0 26be ea9a 153e
00000020: 7b83 61be e0d8 b23d b2c4 6a3d 4bc5 34be
00000030: 59c7 823c 5cfe 223d 9573 d5bd e97a 223d
00000040: 22b2 d13d 459b db3d 6449 28be 6ea4 4cbe
00000050: 5776 4fbe 0d6a 913d 01c5 0f3d 2e0b 6cbe
00000060: 28ab 18be e6de 35be 432c 21be bff1 48be
00000070: bcd1 2a3d 6b87 71be be29 d1bd 433d f83d
